checkpoints/test_run---02_02_2022, 19 06 36.pth (torch, 123943 bytes, 2 tensors)

1.weight f4 [10, 3072]
00000000: 97f3 01bc 2ad9 da3b 42fc 583c ddc4 6d3b
00000010: e7d3 29bc f99b d6bc 6c76 a03b 5972 9bbc
00000020: b5ea 223c e142 1a3c 630f 8f3b cbeb 6fbb
00000030: 387e c63a 25cb e1bb 57c5 4a3b c687 90bc
00000040: 3984 c8bb 9201 84bb 07d2 90bc 2938 7abc
00000050: 4bad c83a 4286 3d3c 48e3 c13c 7eed 46bc
00000060: fc24 ba3b 8705 64bb 4b2c 6a3b 9fcc 4bbc
00000070: 94b8 ebbc e754 31bc 6d2e febb 76ad adbc
00000080: 6b63 a5bc 9178 f6bc 7949 5f3c ceca b83a
00000090: 1d69 263b 3f6e 82ba c901 b5bc 9689 403b
000000a0: 6468 c63a a548 183c f68d 9cbc fcfe 693c
000000b0: 5cf7 1a3a b889 1c3b c160 d1bc 7c0e 303b
000000c0: 1d7c 90bc 2630 48bb 02ec a5bc 59a8 ed3c
000000d0: cd2e e33b 19ae c33c eaae 24b9 19b0 453c
000000e0: 5ceb c43c 460a 46ba 3652 e53b 00fd 62bb
000000f0: 6914 023d 2531 cd3b 9b95 f3bb 7692 e03b
00000100: 96c6 1b3c 2648 09bc 3ff5 81bc 6bb3 36bc
00000110: 1751 16bc 3690 313c a434 9ebc a252 673c
00000120: a5cd 6f3c 743a b63b 9eea 34ba 381d 98bb
00000130: fc90 0b3c 9ec5 2dba f404 a53b 8e80 bebc
00000140: 52b9 29bb bb15 90ba 6343 733c b57a 2139
00000150: a41a 6b3c 717f bf3c ff43 86bc 7638 6ebb
00000160: 0c47 8bbb b7db 153c f620 3c3c 358d b6bb
00000170: bdce 02bc 320a 35bc b9d6 d6bb 02c6 75bc
00000180: fb61 d5bc d388 18bc ee4f 9a3b d9c7 a1bc
00000190: 0c21 83bc b741 babb e168 fbbc 2087 9bbc
000001a0: c9e1 733b 2581 39bc 5f52 ebbb 14be 44bc
000001b0: 3c93 11bc 0b6c 36bc 9d07 60bb 153c 01bb
000001c0: c2fc a6bb 8e56 56bc 8d4e 143b 341d f83c
000001d0: a68f 93bc 5e5b 663c 0d3d dcbb eaf8 a43c
000001e0: d57f f0bb f7cf 453b b6d5 9b3c 5e97 413c
000001f0: ecca a83c 063b 2e3c 9980 f6bb 51a9 083d
00000200: 7dd9 e1bc 5786 6bbb 36d6 bdbc 5440 3cbc
00000210: ac26 27bd 3248 afbc 4bbd febc 41fe 193b
00000220: 1e52 873c dce9 e63b 6186 3c3c c03e 9bbc
00000230: 9fc8 d838 13c7 b1bb 2b4c 0bbd 0f1e 98bc
00000240: 1cab 813c 8dd6 9abb 4fb9 eb3b 32fc 66bc
00000250: b954 003c e926 fa3c 2833 db3c 68f5 c73c
00000260: c0c1 a73b 38bb 33bc 2024 88bc b0fa 40bb
00000270: 3c45 58bc 7092 c73b 221e 193d 50b0 b23c
00000280: a3b2 e2bc ccf9 f9bc f662 3e3b 3156 bf3b
00000290: 6228 d8bc 93ac e1bc 6806 223c cccb b9bc
000002a0: 8bc8 17bc 1647 8bbc 7cd6 03bc 12dd 4dbc
000002b0: 6749 0fbc f61e f8bb 0417 c8ba 3e8e 383c
000002c0: 39e9 06bd 7ffb 343a c4a8 82bc 81a4 e2bb
000002d0: c44a 363c 6f3d a83c 90ac cbbb 7420 a2ba
000002e0: 7b32 d03c f039 cf3c 7948 34ba c376 02bb
000002f0: a581 5f3c 3216 753b 7257 5bbc 541b 613b
00000300: 7403 14bd b0bf 4fbc 4bac a1ba 7f79 b0bc
00000310: 9c89 99bb db0a 41bb 406b 1fbb 2af4 b1bb
00000320: d8a2 9b3b 671e dbbc 33a6 e63b 2e72 ed3c
00000330: 591d abbc b850 b4bc 0328 53bc cd74 60bc
00000340: 475e 2e3b c5c1 dcbc ffc2 eebc 80c9 94bb
00000350: 27f9 12bb 9c6e 053c 59fb 9e3b 6c09 b73b
00000360: 0294 1e3c 7a05 c93b bb35 61bc c603 31bc
00000370: 8ff6 873c a5a0 1c3b cd58 88bc d3ea 673c
00000380: 6050 7bbc a36e 79bc f4e5 efbc f065 e33a
00000390: 7c78 9ebb 4959 abbc 9e31 f73b 5808 033c
000003a0: 930d c6bc fca6 dbbb cca5 4dbb d6c7 afbb
000003b0: bd55 aebc 5c7d c4bc 4be5 833c 4755 93bc
000003c0: 859f b7bc e58e 3d3c 0099 af3a b0bf 74bc
000003d0: 299a 8dbc f441 773c cc87 fe3a df0c 6f3c
000003e0: ba20 8d3a 3805 523c ba38 693b 3140 1dbb
000003f0: 15a6 b63c f6b9 7abb be7a 0a3c c285 8b3c
-0.0079316115 0.00667872 0.013243737 0.003628067 -0.010365463 -0.02619742 0.0048969295 -0.018975424
0.009943654 0.009415359 0.004365848 -0.003660905 0.0015143817 -0.006890672 0.0030940378 -0.017642867
-0.006119278 -0.0040285075 -0.017678274 -0.015272179 0.0015310434 0.011567654 0.023667946 -0.0121415835
0.0056806784 -0.0034793334 0.0035731967 -0.012438922 -0.028774537 -0.010823465 -0.007756999 -0.021200877
-0.020189008 -0.030086787 0.013628357 0.0014098526 0.0025392242 -0.0009951069 -0.022095578 0.0029378883
0.0015137312 0.009294664 -0.019110661 0.014281984 0.0005911493 0.0023885798 -0.025558831 0.0026864102
-0.017637307 -0.0030546277 -0.020254139 0.029010938 0.0069330693 0.023886727 -0.0001570542 0.012065911
0.02403801 -0.00075546314 0.0069983257 -0.0034635663 0.031757746 0.006261962 -0.007433606 0.006853397
0.009507796 -0.008379018 -0.015864013 -0.011151175 -0.009174607 0.010837605 -0.01931221 0.014118822
0.014636432 0.0055611674 -0.0006901416 -0.004642155 0.008518454 -0.00066288735 0.005035991 -0.023254659
-0.0025897813 -0.0010992804 0.014847609 0.00015399868 0.014349613 0.023376198 -0.016389845 -0.0036349571
-0.004250413 0.009146622 0.011482468 -0.0055710324 -0.007983861 -0.011049794 -0.0065563587 -0.015000822
-0.026047697 -0.009309965 0.0047092354 -0.019748615 -0.016006969 -0.0056841034 -0.030689659 -0.018985331
0.0037213436 -0.011322294 -0.0071814503 -0.012008209 -0.008885201 -0.011134158 -0.0034184225 -0.001971965
-0.005096049 -0.01308216 0.0022629828 0.030287363 -0.018012833 0.01405987 -0.006721145 0.020138223
-0.0073394575 0.003018377 0.019022804 0.011815874 0.020604573 0.0106341895 -0.0075226543 0.033364598
-0.027569527 -0.0035938227 -0.023173433 -0.011489946 -0.040808365 -0.02139673 -0.031096121 0.0023497494
0.016518649 0.007046921 0.011506648 -0.01895082 0.00010337051 -0.005425343 -0.034008186 -0.01856902
0.015828662 -0.0047252835 0.0071937214 -0.014098214 0.007832699 0.030536132 0.026757792 0.024409011
0.0051195323 -0.010969929 -0.016618788 -0.0029446296 -0.0132001005 0.0060904548 0.037382253 0.021812588
-0.027673071 -0.03051462 0.0029050685 0.0058391322 -0.026386444 -0.02754811 0.009889223 -0.022680186
-0.009264122 -0.01700167 -0.0080467425 -0.012564914 -0.008745528 -0.00757205 -0.0015265648 0.011264382
-0.032937262 0.0006903931 -0.015949614 -0.006916583 0.011126224 0.020537106 -0.0062156394 -0.0012369291
0.025414696 0.025296181 -0.00068772543 -0.0019907213 0.0136417495 0.0037397263 -0.013387548 0.0034348564
-0.036136106 -0.012679979 -0.0012334673 -0.021542309 -0.004685594 -0.0029455933 -0.00243254 -0.005430718
0.004749637 -0.026747895 0.0070388555 0.02898511 -0.020888017 -0.022011146 -0.0128879575 -0.0136997225
0.0026606487 -0.026947865 -0.029145716 -0.0045406222 -0.0022426338 0.008144047 0.0048517403 0.00558584
0.0096788425 0.006134686 -0.0137457205 -0.010804122 0.01659706 0.0023899463 -0.016643906 0.014155108
-0.015338987 -0.015224132 -0.029284455 0.0017349105 -0.00483614 -0.020916598 0.0075437566 0.007997595
-0.024176395 -0.0067032557 -0.003137934 -0.0053643985 -0.021281118 -0.023985557 0.016100546 -0.017985
-0.022414932 0.011569713 0.0013397038 -0.01493828 -0.017285423 0.015091408 0.0019419133 0.014590471
0.00107672 0.012818627 0.003558679 -0.002399456 0.022295991 -0.0038257814 0.008452116 0.017031554

1.bias f4 [10]
00000000: d2e9 aebd 2686 063e 8cdd 783d ac6c 833c
00000010: 7d5d 1ebc dd28 16bc 19fc 38bd ee8f 71bc
00000020: 7e57 86bd c7d5 8dbd
-0.085406914 0.13137111 0.06075816 0.01604303 -0.009665844 -0.009165016 -0.045162294 -0.014743788
-0.065596566 -0.069255404
